code/output/flowModel_longEpsLongRunEval.npy (npy, 6528 bytes, 1 tensors)

array (column-major) f8 [100, 8]
000000 00 00 00 00 40 0a 30 41 00 00 00 00 40 0a 30 41
       1051200.0 1051200.0
000010 00 00 00 00 4c 73 19 41 00 00 00 00 56 2d 24 41
       416979.0 661163.0
000020 00 00 00 00 40 0a 30 41 00 00 00 00 40 0a 30 41
       1051200.0 1051200.0
000030 00 00 00 00 1e 7b 2d 41 00 00 00 00 40 0a 30 41
       966031.0 1051200.0
000040 00 00 00 00 40 0a 30 41 00 00 00 00 40 0a 30 41
       1051200.0 1051200.0
000050 00 00 00 00 90 4e 04 41 00 00 00 00 40 0a 30 41
       166354.0 1051200.0
000060 00 00 00 00 90 44 1d 41 00 00 00 00 0c 3b 26 41
       479524.0 728454.0
000070 00 00 00 00 40 0a 30 41 00 00 00 00 dc d5 1d 41
       1051200.0 488823.0
000080 00 00 00 00 40 0a 30 41 00 00 00 00 40 0a 30 41
       1051200.0 1051200.0
000090 00 00 00 00 40 0a 30 41 00 00 00 00 40 0a 30 41
       1051200.0 1051200.0
0000a0 00 00 00 00 40 0a 30 41 00 00 00 00 98 5e 20 41
       1051200.0 536396.0
0000b0 00 00 00 00 70 bf 2d 41 00 00 00 00 18 ed 1e 41
       974776.0 506694.0
0000c0 00 00 00 00 f4 01 10 41 00 00 00 00 40 0a 30 41
       262269.0 1051200.0
0000d0 00 00 00 00 40 0a 30 41 00 00 00 00 40 0a 30 41
       1051200.0 1051200.0
0000e0 00 00 00 00 40 0a 30 41 00 00 00 00 40 0a 30 41
       1051200.0 1051200.0
0000f0 00 00 00 00 e0 0c 26 41 00 00 00 00 40 0a 30 41
       722544.0 1051200.0
000100 00 00 00 00 9a 34 2a 41 00 00 00 00 54 e8 1f 41
       858701.0 522773.0
000110 00 00 00 00 40 0a 30 41 00 00 00 00 40 0a 30 41
       1051200.0 1051200.0
000120 00 00 00 00 40 0a 30 41 00 00 00 00 40 0a 30 41
       1051200.0 1051200.0
000130 00 00 00 00 a8 ab 2a 41 00 00 00 00 ac 97 19 41
       873940.0 419307.0
000140 00 00 00 00 ac e4 29 41 00 00 00 00 40 0a 30 41
       848470.0 1051200.0
000150 00 00 00 00 40 0a 30 41 00 00 00 00 40 0a 30 41
       1051200.0 1051200.0
000160 00 00 00 00 40 0a 30 41 00 00 00 00 40 0a 30 41
       1051200.0 1051200.0
000170 00 00 00 00 88 67 2a 41 00 00 00 00 40 0a 30 41
       865220.0 1051200.0
000180 00 00 00 00 84 a6 12 41 00 00 00 00 40 0a 30 41
       305569.0 1051200.0
000190 00 00 00 00 40 0a 30 41 00 00 00 00 40 0a 30 41
       1051200.0 1051200.0
0001a0 00 00 00 00 40 0a 30 41 00 00 00 00 b8 64 24 41
       1051200.0 668252.0
0001b0 00 00 00 00 40 0a 30 41 00 00 00 00 40 0a 30 41
       1051200.0 1051200.0
0001c0 00 00 00 00 a2 e5 20 41 00 00 00 00 40 0a 30 41
       553681.0 1051200.0
0001d0 00 00 00 00 e0 3e 21 41 00 00 00 00 40 0a 30 41
       565104.0 1051200.0
0001e0 00 00 00 00 e8 e8 11 41 00 00 00 00 70 e7 10 41
       293434.0 276956.0
0001f0 00 00 00 00 36 19 27 41 00 00 00 00 40 0a 30 41
       756891.0 1051200.0
000200 00 00 00 00 40 0a 30 41 00 00 00 00 40 0a 30 41
       1051200.0 1051200.0
000210 00 00 00 00 78 2d 09 41 00 00 00 00 40 0a 30 41
       206255.0 1051200.0
000220 00 00 00 00 00 06 2f 41 00 00 00 00 a8 96 03 41
       1016576.0 160469.0
000230 00 00 00 00 34 45 20 41 00 00 00 00 40 0a 30 41
       533146.0 1051200.0
000240 00 00 00 00 6a 07 2d 41 00 00 00 00 40 0a 30 41
       951221.0 1051200.0
000250 00 00 00 00 40 0a 30 41 00 00 00 00 40 0a 30 41
       1051200.0 1051200.0
000260 00 00 00 00 40 0a 30 41 00 00 00 00 40 0a 30 41
       1051200.0 1051200.0
000270 00 00 00 00 76 ab 25 41 00 00 00 00 40 0a 30 41
       710075.0 1051200.0
000280 00 00 00 00 14 81 11 41 00 00 00 00 40 0a 30 41
       286789.0 1051200.0
000290 00 00 00 00 12 af 22 41 00 00 00 00 40 0a 30 41
       612233.0 1051200.0
0002a0 00 00 00 00 0a 1f 2e 41 00 00 00 00 74 f4 1d 41
       987013.0 490781.0
0002b0 00 00 00 00 e0 e1 1f 41 00 00 00 00 f0 56 13 41
       522360.0 316860.0
0002c0 00 00 00 00 40 0a 30 41 00 00 00 00 e6 db 29 41
       1051200.0 847347.0
0002d0 00 00 00 00 40 0a 30 41 00 00 00 00 40 0a 30 41
       1051200.0 1051200.0
0002e0 00 00 00 00 9c 36 25 41 00 00 00 00 34 7c 22 41
       695118.0 605722.0
0002f0 00 00 00 00 40 0a 30 41 00 00 00 00 40 0a 30 41
       1051200.0 1051200.0
000300 00 00 00 00 6c 7a 20 41 00 00 00 00 40 0a 30 41
       539958.0 1051200.0
000310 00 00 00 00 40 0a 30 41 00 00 00 00 40 0a 30 41
       1051200.0 1051200.0
000320 5b e5 c2 d7 19 e7 ef bf bc c3 b0 95 31 2a f0 bf
       -0.9969605650032166 -1.0103011939320217
000330 8e 53 37 f2 87 c7 f0 bf be 31 93 59 34 71 f0 bf
       -1.048713632733072 -1.0276378153822487
000340 dc 65 b4 71 dd 0d f0 bf ca e4 89 2b 08 21 f0 bf
       -1.0033850137318643 -1.0080644322136316
000350 7b db 8b 7c 0b 95 f0 bf e1 a6 2d 96 44 71 f0 bf
       -1.0363879075136697 -1.0276532999363825
000360 0d 38 00 a0 79 31 f0 bf cf 6a 15 2c bd 32 f0 bf
       -1.012078881266919 -1.0123874399202355
000370 c7 b4 75 42 70 31 f1 bf 1b c7 8b 45 f1 38 f0 bf
       -1.0745699497304473 -1.0139019695893186
000380 97 b1 48 2c 96 93 f0 bf 63 bf 04 ee 89 67 f0 bf
       -1.0360318879930668 -1.0252780244445254
000390 38 c1 3f 31 80 23 f0 bf cf fd 52 e7 be 8c f0 bf
       -1.0086671756544785 -1.0343617473698605
0003a0 d5 33 67 61 d3 24 f0 bf 47 39 8a 0a fb 33 f0 bf
       -1.0089906506357142 -1.012690583392741
0003b0 31 9c b5 3e 97 2e f0 bf ba b8 d3 08 17 3f f0 bf
       -1.011374707182551 -1.0154028267675543
0003c0 48 92 8e fa 5f 40 f0 bf 53 ff 1a b1 16 ad f0 bf
       -1.0157165324573203 -1.042257968729207
0003d0 e9 4f 92 d3 13 5b f0 bf f3 97 e7 cb 49 7a f0 bf
       -1.0222357048523867 -1.029855534079158
0003e0 e8 a5 cb fc 9c f4 f0 bf 45 ed fc e2 6f 5c f0 bf
       -1.059720027429984 -1.0225676409452984
0003f0 37 aa 79 b3 39 35 f0 bf 53 0a 41 34 44 45 f0 bf
       -1.012994481158456 -1.0169107476400725
000400 ed f1 03 94 5f 40 f0 bf c2 f9 d7 cd b5 2e f0 bf
       -1.0157161504604304 -1.0114038506286396
000410 3c 07 00 f3 56 7f f0 bf bd 6b 7a 05 59 5c f0 bf
       -1.0310887806121647 -1.0225458349220695
000420 da 6c 2f c0 47 5a f0 bf 73 8a 3b 71 99 8c f0 bf
       -1.0220410830723297 -1.0343260214946468
000430 b4 dd f5 5b 0a 1d f0 bf a8 d7 cc 10 ab 20 f0 bf
       -1.0070899574474028 -1.0079756408935996
000440 38 f0 d0 af 7a 36 f0 bf 24 2b 11 62 83 25 f0 bf
       -1.013300596982857 -1.0091584997887333
000450 39 94 3e 61 8c 61 f0 bf 10 9f e6 27 94 b9 f0 bf
       -1.0238155172931 -1.045307308066132
000460 4e 26 0f ed 0a 81 f0 bf a4 e6 d9 84 6f 33 f0 bf
       -1.031504560482421 -1.0125575246333165
000470 b7 9e c6 ef 03 1d f0 bf 53 0c b5 5d 32 12 f0 bf
       -1.0070838323826317 -1.0044425640524153
000480 ff 1f 91 c7 b3 3c f0 bf b8 b6 54 3f 68 3e f0 bf
       -1.0148198886472526 -1.0152361368049423
000490 a3 61 5f 62 6b 59 f0 bf dc ee ef cd 93 48 f0 bf
       -1.0218309252432867 -1.0177190823005082
0004a0 70 23 b7 55 76 dc f0 bf bf 8a db 8f 3a 19 f0 bf
       -1.0538237903840262 -1.0061593646466205
0004b0 3c cf e5 db be 26 f0 bf 21 c7 8e c5 97 33 f0 bf
       -1.009459361052861 -1.0125959126566573
0004c0 d2 ac 49 17 1a 33 f0 bf 50 5d be f8 fe 60 f0 bf
       -1.012476054161017 -1.0236806599185293
0004d0 e9 df dd 5d 89 3a f0 bf 34 6c b2 74 10 18 f0 bf
       -1.0142911593120465 -1.0058750685191287
0004e0 01 88 9f a1 22 70 f0 bf 24 bf c1 15 ba 2e f0 bf
       -1.0273767770199813 -1.0114079332233326
0004f0 06 cb e5 61 20 65 f0 bf 1b 22 a7 6a 55 1d f0 bf
       -1.024689085400213 -1.0071615377547747
000500 48 5f 78 3e df 8a f0 bf 4d 74 17 25 4f 8e f0 bf
       -1.033904308342203 -1.0347434471980421
000510 38 4d 0c ed e4 64 f0 bf 00 29 b5 ea 4f 04 f0 bf
       -1.0246323833169537 -1.0010527771251532
000520 55 14 ad c0 c2 2d f0 bf b4 18 7b c1 0e 02 f0 bf
       -1.0111720587167572 -1.000502353462747
000530 1e 1d 88 67 55 ec f0 bf 81 93 5d 10 d7 2d f0 bf
       -1.0576986355025109 -1.0111914290693849
000540 76 12 65 15 3a 63 f0 bf bc 23 c5 4d 54 5a f1 bf
       -1.0242253146872407 -1.0845530546086897
000550 6c 06 eb 94 e4 75 f0 bf dd ba 5d 59 57 42 f0 bf
       -1.02878244563217 -1.016196583830314
000560 b2 b6 1f 5d ee 5d f0 bf b4 7c 17 46 a2 23 f0 bf
       -1.0229323995257968 -1.0086996782263613
000570 b3 68 0b 3c 25 31 f0 bf db 2c f8 63 02 4c f0 bf
       -1.0119984002581475 -1.018556967263797
000580 a6 31 1b c6 bc 1e f0 bf c4 51 4a ec 6e 21 f0 bf
       -1.0075042475246874 -1.0081624250498047
000590 8a 48 ee 50 ce 36 f0 bf 54 1d 70 ff 29 24 f0 bf
       -1.0133803521498828 -1.0088291147274804
0005a0 a9 9d 50 5c 5d be f0 bf 2c 87 fa b5 6a 20 f0 bf
       -1.0464757543612484 -1.0079142674007455
0005b0 45 db 16 c7 06 72 f0 bf a6 f6 53 53 ef 44 f0 bf
       -1.027838494961274 -1.0168298010825452
0005c0 66 c3 15 e9 8b 49 f0 bf e9 6f 8d f0 49 7a f0 bf
       -1.0179556946643173 -1.0298556706029507
0005d0 ac 2b 8b 84 a7 86 f0 bf 42 ab f3 77 f1 af f0 bf
       -1.032874601124358 -1.0429548917406497
0005e0 47 9b 65 a4 b8 2c f0 bf a8 17 91 d2 3b 4d f0 bf
       -1.0109182760003976 -1.018855879332003
0005f0 aa 39 5a d4 7c 26 f0 bf 22 1c d8 b8 1d 90 f0 bf
       -1.0093963904397278 -1.0351845951534036
000600 06 fb 61 47 76 85 f0 bf b2 1d 1c 43 e3 73 f0 bf
       -1.032583502615752 -1.0282929059484158
000610 0f 82 24 0f 90 3c f0 bf 06 f8 b8 8e 86 58 f0 bf
       -1.014785823012179 -1.0216126990412717
000620 da 82 ac a6 df 5e f0 bf b6 c2 fc aa 2c 2b f0 bf
       -1.0231625090311156 -1.0105406455224233
000630 1b ed 25 04 42 14 f0 bf 11 9f 8f da af 48 f0 bf
       -1.0049457704579428 -1.017745832208622
000640 15 23 69 27 c0 79 98 3f 49 ae af 78 32 75 98 3f
       0.023901941686094014 0.023884571663002317
000650 9a a2 95 7f 97 3f 98 3f a9 9d bd 1a c0 49 98 3f
       0.02368008342947068 0.023718835479852683
000660 c9 b6 d6 7f f5 5f 98 3f e9 11 df c0 3d 46 98 3f
       0.023803554465920116 0.023705449006017707
000670 9d 1f 53 b5 aa 75 98 3f f8 c4 a1 91 ed 7c 98 3f
       0.023886363331967798 0.02391406251303338
000680 36 2a d8 c8 4e 69 98 3f bd 65 0a 40 1c 80 98 3f
       0.023839217194146133 0.023926202210167825
000690 df af 8c 65 7f 07 98 3f d8 d4 bf f4 91 81 98 3f
       0.023466101239293265 0.02393177086192541
0006a0 b9 88 9a 9e b2 20 98 3f 04 19 26 9f 14 3b 98 3f
       0.02356223195113991 0.023662874425576255
0006b0 26 54 3e 50 12 48 98 3f 6f d4 bc e9 0f 62 98 3f
       0.02371243109481127 0.02381157745476908
0006c0 f8 f0 1a 51 9d 70 98 3f 58 41 d3 f2 ab 53 98 3f
       0.023867090297003707 0.023756682105898846
0006d0 d1 89 8a 97 40 4f 98 3f 78 d3 05 ea 47 4a 98 3f
       0.023739823579157552 0.023720859202018357
0006e0 60 9b ad e7 18 46 98 3f 92 23 04 8d f8 54 98 3f
       0.02370489992190572 0.02376163826650985
0006f0 96 f4 15 22 5c 73 98 3f 2b 14 57 51 3f 5f 98 3f
       0.023877563076429263 0.023800839748009544
000700 f4 76 cd d7 c2 73 98 3f 3a f1 61 9d a2 46 98 3f
       0.023879093572182833 0.023706951957579415
000710 71 f5 13 9c bd 55 98 3f 29 76 65 f1 e8 28 98 3f
       0.02376457467197696 0.02359355901113794
000720 c2 3b e8 ba b4 8a 98 3f 49 13 88 52 5a 5f 98 3f
       0.02396662131109984 0.023801242148709965
000730 28 5e 08 f4 67 5f 98 3f a0 0f 86 db 6e 31 98 3f
       0.02380144526440922 0.02362607207170664
000740 00 9a ed dc 6d 79 98 3f c8 07 8a 25 83 5a 98 3f
       0.023900715455420496 0.023782776991090576
000750 05 c2 e0 0c be 6b 98 3f 90 cd ee fa f8 a7 98 3f
       0.023848504577644664 0.02407826453754819
000760 37 9e 50 07 71 46 98 3f 96 81 06 e0 7e 7b 98 3f
       0.023706213065592698 0.023908598349977682
000770 65 19 06 a2 85 59 98 3f b3 6c d7 2f 3c 7e 98 3f
       0.02377899934210727 0.02391904870988233
000780 63 df 95 05 f6 62 98 3f e8 87 25 01 19 6a 98 3f
       0.023815006342800326 0.023842230505927292
000790 3d 84 4e 9e 27 5a 98 3f a6 0c 39 a0 03 84 98 3f
       0.023781413113855832 0.02394109406874336
0007a0 b5 77 fe e3 d5 35 98 3f 2d 18 af 96 20 1a 98 3f
       0.023642866173410677 0.023537167737025456
0007b0 95 b0 03 19 e0 3d 98 3f f3 33 8b 2f dc 39 98 3f
       0.023673535849341027 0.023658218767014415
0007c0 c8 b9 b8 d0 84 86 98 3f 6c a3 62 b7 13 5b 98 3f
       0.02395064853606657 0.023784931247664273
0007d0 ee 96 bc 5a c2 8e 98 3f d9 21 84 50 21 62 98 3f
       0.023982083118560142 0.023811836757006908
0007e0 96 37 d2 09 6d 72 98 3f 9a 58 85 2b d2 84 98 3f
       0.02387400028651817 0.02394417181616202
0007f0 ac 97 b3 0c 88 58 98 3f e3 e6 28 0a 50 69 98 3f
       0.023775220656623894 0.023839235897162758
