code/output/flowModelLongRunEval.npy (npy, 6528 bytes, 1 tensors)

array (column-major) f8 [100, 8]
0	0x41300a4000000000	1051200.0
1	0x41300a4000000000	1051200.0
2	0x41300a4000000000	1051200.0
3	0x41300a4000000000	1051200.0
4	0x41300a4000000000	1051200.0
5	0x41300a4000000000	1051200.0
6	0x41300a4000000000	1051200.0
7	0x41300a4000000000	1051200.0
8	0x4129d02800000000	845844.0
9	0x41300a4000000000	1051200.0
10	0x41300a4000000000	1051200.0
11	0x41300a4000000000	1051200.0
12	0x41300a4000000000	1051200.0
13	0x41300a4000000000	1051200.0
14	0x41300a4000000000	1051200.0
15	0x41300a4000000000	1051200.0
16	0x412d005000000000	950312.0
17	0x41300a4000000000	1051200.0
18	0x41129f3400000000	305101.0
19	0x41300a4000000000	1051200.0
20	0x41300a4000000000	1051200.0
21	0x41300a4000000000	1051200.0
22	0x41300a4000000000	1051200.0
23	0x41300a4000000000	1051200.0
24	0x41300a4000000000	1051200.0
25	0x41300a4000000000	1051200.0
26	0x41300a4000000000	1051200.0
27	0x412dab3400000000	972186.0
28	0x4119374400000000	413137.0
29	0x4127963c00000000	772894.0
30	0x41300a4000000000	1051200.0
31	0x41300a4000000000	1051200.0
32	0x41300a4000000000	1051200.0
33	0x41300a4000000000	1051200.0
34	0x41300a4000000000	1051200.0
35	0x411ead6400000000	502617.0
36	0x41300a4000000000	1051200.0
37	0x4128745800000000	801324.0
38	0x411451a000000000	332904.0
39	0x41300a4000000000	1051200.0
40	0x41300a4000000000	1051200.0
41	0x41300a4000000000	1051200.0
42	0x41300a4000000000	1051200.0
43	0x41300a4000000000	1051200.0
44	0x41300a4000000000	1051200.0
45	0x4121279e00000000	562127.0
46	0x41300a4000000000	1051200.0
47	0x41300a4000000000	1051200.0
48	0x41300a4000000000	1051200.0
49	0x41300a4000000000	1051200.0
50	0x41300a4000000000	1051200.0
51	0x412a7b9c00000000	867790.0
52	0x41300a4000000000	1051200.0
53	0x411724f400000000	379197.0
54	0x41300a4000000000	1051200.0
55	0x412e558200000000	993985.0
56	0x4126fcc400000000	753250.0
57	0x412f93f200000000	1034745.0
58	0x41300a4000000000	1051200.0
59	0x410abd4000000000	219048.0
60	0x41300a4000000000	1051200.0
61	0x41300a4000000000	1051200.0
62	0x41300a4000000000	1051200.0
63	0x410705e800000000	188605.0
64	0x4125c8a200000000	713809.0
65	0x4124d4c000000000	682592.0
66	0x411c5d8000000000	464736.0
67	0x41300a4000000000	1051200.0
68	0x41300a4000000000	1051200.0
69	0x41300a4000000000	1051200.0
70	0x411043a400000000	266473.0
71	0x4118bf3400000000	405453.0
72	0x4126708200000000	735297.0
73	0x41300a4000000000	1051200.0
74	0x41300a4000000000	1051200.0
75	0x4111c25800000000	290966.0
76	0x41210fd200000000	559081.0
77	0x41300a4000000000	1051200.0
78	0x41300a4000000000	1051200.0
79	0x41247f3e00000000	671647.0
80	0x41300a4000000000	1051200.0
81	0x41300a4000000000	1051200.0
82	0x412288d200000000	607337.0
83	0x4124860e00000000	672519.0
84	0x41300a4000000000	1051200.0
85	0x411d1e7c00000000	477087.0
86	0x41300a4000000000	1051200.0
87	0x41300a4000000000	1051200.0
88	0x41300a4000000000	1051200.0
89	0x410487f800000000	168191.0
90	0x41300a4000000000	1051200.0
91	0x41300a4000000000	1051200.0
92	0x4113594000000000	317008.0
93	0x41300a4000000000	1051200.0
94	0x4117306800000000	379930.0
95	0x41300a4000000000	1051200.0
96	0x41300a4000000000	1051200.0
97	0x41300a4000000000	1051200.0
98	0x41300a4000000000	1051200.0
99	0x41300a4000000000	1051200.0
100	0xbff83e100361be75	-1.5151519901372954
101	0xbff84265b26d8fb5	-1.5162102670519577
102	0xbff835b0dc321743	-1.5131081200974712
103	0xbff851eec4aaa2ac	-1.5200030977522756
104	0xbff813e34217b13d	-1.5048554021587528
105	0xbff8478807c9d37b	-1.5174637130960196
106	0xbff8374effd119a6	-1.513503073963514
107	0xbff85bdbb5abb555	-1.522426328326522
108	0xbff89c3b43e2ae4c	-1.5381424571777584
109	0xbff823b2281792d0	-1.5087148252579716
110	0xbff82a797d57a6b0	-1.5103697677790642
111	0xbff864ab49c1da7a	-1.5245774155752359
112	0xbff837a92fe6691d	-1.5135890837760322
113	0xbff81ce6d80409dc	-1.507056087314246
114	0xbff83da1f3baad0a	-1.5150470276519763
115	0xbff828c8c3e60a04	-1.5099570896423993
116	0xbff82d390e45f2bf	-1.51104074073298
117	0xbff86bcfb070bc02	-1.5263211147500901
118	0xbff8c779c051b5fe	-1.5487000954120727
119	0xbff83e90d4656982	-1.5152748390888466
120	0xbff83f99759c741a	-1.5155272096810735
121	0xbff84483f2ba0c45	-1.5167273980630551
122	0xbff845e7fe392ecf	-1.5170669489479456
123	0xbff826ce8304d523	-1.5094742887425319
124	0xbff8448bbceb36cc	-1.5167348270073715
125	0xbff81679c0797b88	-1.5054872053658261
126	0xbff836f960377b7e	-1.5134214170900289
127	0xbff88f89d8522891	-1.535043568614615
128	0xbff87d0c7de12d1f	-1.53052949115483
129	0xbff88e355aee81af	-1.5347188522356239
130	0xbff8411ab69da0fa	-1.515894616453862
131	0xbff85d0930e7eb21	-1.52271384338264
132	0xbff82f98d14c3e36	-1.511620347566248
133	0xbff870ac919f47e8	-1.527508324467357
134	0xbff815ea28f299d1	-1.505350265456958
135	0xbff8598a4e0aa765	-1.5218604134083418
136	0xbff84e13b1b396c8	-1.5190617505517583
137	0xbff877183dc990e3	-1.5290758527344728
138	0xbff89d8a1c1ba58c	-1.5384617898911044
139	0xbff8219681c6892c	-1.508200175223986
140	0xbff836b1e2c3c807	-1.513353238868605
141	0xbff8106b8461a5ff	-1.5040087863111464
142	0xbff854b4ac63197b	-1.5206801160689725
143	0xbff849c8305711be	-1.5180131805692407
144	0xbff86f7425eed54b	-1.5272103769069243
145	0xbff8240dd28943b4	-1.5088022445745368
146	0xbff833d9f060d2ee	-1.5126590146803056
147	0xbff84449243fd61f	-1.5166713157644904
148	0xbff82e41f8b0a71d	-1.5112933840231968
149	0xbff815257feea4e4	-1.5051627156593037
150	0xbff827f1f876ce67	-1.5097522454861065
151	0xbff8374ab11187b8	-1.5134989659058942
152	0xbff82d960fc78037	-1.5111294380549347
153	0xbff8bdbaf3659a04	-1.5463208682718923
154	0xbff836a9bfddd473	-1.5133454794679693
155	0xbff839dca5d9e1a4	-1.5141264418181004
156	0xbff88311e3178779	-1.5319994803216714
157	0xbff86d0422fe1329	-1.5266152731794114
158	0xbff85d872b5de7e3	-1.522833985711707
159	0xbff8cfd03f3c472b	-1.5507357092032616
160	0xbff85da6f0bcc426	-1.5228642848781049
161	0xbff82f0ebde96880	-1.5114886682918325
162	0xbff83c11978a6468	-1.5146652144960857
163	0xbff8e293325f9bd8	-1.5553161590303173
164	0xbff88f66fad2a35c	-1.5350103185430362
165	0xbff85dab5a2dc383	-1.522868492375182
166	0xbff89337eab0d67a	-1.5359419982536608
167	0xbff817b266d3dd35	-1.505785371465959
168	0xbff84c728f90f502	-1.5186639411979859
169	0xbff839bd60bf284f	-1.5140966204803765
170	0xbff85443055208e9	-1.5205717284994142
171	0xbff8bd9520d766e4	-1.5462847979419445
172	0xbff8820d1b81c025	-1.5317507814870706
173	0xbff822a8713f934f	-1.5084614204181042
174	0xbff873d85103c3e3	-1.5282824673306485
175	0xbff97272781ddb35	-1.5904411975913721
176	0xbff836fb8c94592d	-1.5134234897028123
177	0xbff8450694c91b59	-1.516851979440352
178	0xbff8646164b752c8	-1.5245069441054273
179	0xbff86e61af8e92e4	-1.5269486291592154
180	0xbff845b153985cc4	-1.517014814895263
181	0xbff84f1cbdefe5e4	-1.5193145198267013
182	0xbff8576abc722077	-1.521342025867879
183	0xbff8515d22ef2584	-1.5198642124763362
184	0xbff8252b10728633	-1.509074272391797
185	0xbff893cdaa986672	-1.5360848106269285
186	0xbff8559816c1e78e	-1.5208969963991623
187	0xbff811861745cf38	-1.5042782696809365
188	0xbff84135acbb3c3f	-1.5159203288383336
189	0xbff9406932d2ae21	-1.5782253251335379
190	0xbff843e9bea34861	-1.5165803381719558
191	0xbff91530fbf111cd	-1.5676736680480758
192	0xbff91ac08220b276	-1.5690312464822944
193	0xbff81f817f6f464b	-1.5076918580929426
194	0xbff821dd9b796dcd	-1.5082679818359452
195	0xbff85244316e1a3c	-1.5200845652449422
196	0xbff849b391b5a9ac	-1.5179935161382714
197	0xbff81374afbd76ea	-1.5047499527785768
198	0xbff859e55ec01154	-1.5219472600156978
199	0xbff82411f80f1efa	-1.5088061990554125
200	0x3f9a389211cfefad	0.025606424653218763
201	0x3f9a41f519a932d5	0.02564223260042094
202	0x3f9a154bd5049ecb	0.02547186362894997
203	0x3f9a43eca26d0406	0.025649735845266995
204	0x3f9a54e59887967f	0.025714480814619464
205	0x3f9a5363df21ad32	0.02570873307597061
206	0x3f9a4465ba727326	0.02565154028399088
207	0x3f9a60ea8d00778d	0.02576033101660573
208	0x3f9a56323f090c71	0.025719437692043493
209	0x3f9a6b06bc6998ec	0.025798897981439348
210	0x3f9a42052afe924f	0.02564247202794184
211	0x3f9a4a0c25910ad3	0.025673093598252827
212	0x3f9a54a5544dcea3	0.025713523169044305
213	0x3f9a2d6f402cc68b	0.025563944141316724
214	0x3f9a3fb42cf5ffdb	0.025633635753820144
215	0x3f9a45abe2c57d67	0.025656400409727633
216	0x3f9a58e41fb19374	0.02572971766894079
217	0x3f9a62ae4f5ea156	0.025767062754000612
218	0x3f9a54a51da6f945	0.025713519987897077
219	0x3f9a3837e9645d0d	0.025605081195945668
220	0x3f9a2a26c7d14476	0.02555142016018804
221	0x3f9a435c26a8288f	0.025647582873752624
222	0x3f9a3f30ef63cf2f	0.025631680117796648
223	0x3f9a412800db087b	0.025639176418515746
224	0x3f9a4b3f6b9cef7e	0.02567767233197981
225	0x3f9a61ac78f1ed84	0.02576322067441829
226	0x3f9a646132110a20	0.025773543053455694
227	0x3f9a580259ed2c55	0.025726353396106145
228	0x3f9a7c1fe25524e5	0.025864122571225407
229	0x3f9a4dc9791ff810	0.025687358873248967
230	0x3f9a4e46a53d67e2	0.02568922408622843
231	0x3f9a69ba92276561	0.02579394833614879
232	0x3f9a52c27317d1ce	0.0257063277003498
233	0x3f9a293a0f1ef06c	0.02554789273538953
234	0x3f9a4b19e21f3d61	0.025677112985986187
235	0x3f9a42bce97e58c2	0.025645210028948602
236	0x3f9a33d6469f5a37	0.025588367519811164
237	0x3f9a6040b276a5ae	0.025757799999757296
238	0x3f9ab263a787f699	0.026071126079833282
239	0x3f9a3cb6073e8cc4	0.0256222192689506
240	0x3f9a43f82a2e9b1c	0.02564990766009166
241	0x3f9a6b86d76da50a	0.025800806902599262
242	0x3f9a3b53f4785f46	0.025616943165089688
243	0x3f9a60d25a9b7374	0.025759970455385653
244	0x3f9a4017bd76bfe9	0.025635119379955915
245	0x3f9a4d0d05a01502	0.025684550731985396
246	0x3f9a5a2f971e1309	0.025734656904677276
247	0x3f9a3ea9d9992216	0.025629667192591375
248	0x3f9a78007dbe304d	0.025848395991076512
249	0x3f9a60cf40aceb03	0.02575992424247443
250	0x3f9a451e21c0c20c	0.025654288110844845
251	0x3f9a65bfc3d3cffe	0.025778766944270608
252	0x3f9a569ea90636db	0.025721053186820036
253	0x3f9a3b4d49b9146f	0.025616843819325327
254	0x3f9a4604b0cce41c	0.025657723704373678
255	0x3f9a42d21b279970	0.025645525843992656
