code/output/headModel_longEpsLongRunEval.npy (npy, 6528 bytes, 1 tensors)

array (column-major) f8 [100, 8]
669551.0 204567.0 336544.0 301600.0 523731.0 665112.0 291521.0 328603.0
1051200.0 645165.0 131665.0 308796.0 516051.0 1014580.0 112492.0 330549.0
1051200.0 169377.0 184574.0 888879.0 385202.0 300657.0 1051200.0 81690.0
441485.0 506874.0 485564.0 674013.0 301823.0 395565.0 312822.0 136479.0
209204.0 183847.0 171170.0 840687.0 251193.0 349404.0 628228.0 113699.0
348036.0 862880.0 979909.0 1012991.0 870984.0 885843.0 268553.0 1051200.0
467034.0 172387.0 254108.0 423138.0 380191.0 529067.0 323492.0 761998.0
433854.0 994184.0 152863.0 462446.0 736016.0 967613.0 673393.0 491825.0
460934.0 285348.0 371322.0 239692.0 278007.0 297347.0 457700.0 991102.0
1051200.0 210510.0 890844.0 388151.0 260818.0 1051200.0 140280.0 614800.0
212339.0 389867.0 419634.0 279180.0 245684.0 402590.0 161347.0 432337.0
613499.0 342166.0 869690.0 312916.0 340580.0 740687.0 104604.0 834457.0
48352.0 241017.0 722202.0 180599.0 -1.3974837875950876 -1.4336748991760708 -1.443874254117167 -1.3817978816013095
-1.356527722734575 -1.3317758696143924 -1.377229972268764 -1.4329246677107712 -1.3486080485779648 -1.3995482213288395 -1.430481439479314 -1.3786580060765712
-1.3790702784936435 -1.3456115525596373 -1.4555273547794152 -1.3790920030508922 -1.343525379823101 -1.4125962823072435 -1.4464735860649243 -1.4092490869545937
-1.406488757276276 -1.3807379502809602 -1.3863589003622616 -1.511283689238124 -1.3658333482667535 -1.3930917891861465 -1.391325673907043 -1.3983750209356418
-1.3758833961885446 -1.3815819797071272 -1.3858324120832253 -1.4012945015489644 -1.4143619164277001 -1.4250637231309897 -1.4255924351171723 -1.3448795119611106
-1.3654526420554793 -1.44005970901768 -1.3624490881339903 -1.4806227872073627 -1.4226566214379592 -1.3702656627548928 -1.3577204990086562 -1.3953457213071292
-1.3770918291494392 -1.3718373181049321 -1.3915594352601959 -1.349787931486391 -1.4243019061533893 -1.3976029513196637 -1.3688294639978165 -1.3903588477201685
-1.409796290662055 -1.3925903571520328 -1.4070370217079873 -1.4089290345200296 -1.3827417113814897 -1.3492679946739705 -1.4624280131345444 -1.4171659388245896
-1.3578838739995034 -1.3427768498686186 -1.4106682825943682 -1.3609867866432337 -1.392024924259271 -1.3868451300323956 -1.411535878676506 -1.4460336221791559
-1.3655238661435145 -1.4143569212829659 -1.40436563951539 -1.3474139611280351 -1.3677925738026737 -1.40453269803116 -1.4047997150423792 -1.439342469214393
-1.38059781560141 -1.3623448473057143 -1.464451616362566 -1.3699447984437347 -1.405784058305473 -1.3839990675782712 -1.4051589748823958 -1.4071788466540582
-1.4416344696898165 -1.3648736614735708 -1.3793691238643528 -1.3929777379832469 -1.3494624849207715 -1.3911232388325379 -1.405567418825649 -1.3773742791303654
-1.4083429069246531 -1.3495320924779177 -1.4514328845856421 -1.3899950105893726 -1.6286984927999106 -1.4367459378074148 -1.3981954768044527 -1.4190617648967718
0.044638875944748364 0.045147913377543536 0.04660773530620155 0.05004904013249439 0.04978755446004625 0.04739298143709273 0.050769094432777405 0.050928675201826375
0.04841638900884599 0.049004281370253255 0.045707241247297095 0.052759769985529184 0.050108612162432356 0.04747096510897418 0.042971921987691966 0.04883418219579115
0.050623955576345865 0.04913464024292717 0.05179319250015377 0.04979734060069626 0.05028637995293685 0.05062678638704801 0.046979138865410504 0.04637022031758329
0.04666970763018521 0.044380988788225655 0.050055672931356536 0.0489296847853758 0.04916628832515965 0.04970742015994436 0.05088357527101799 0.04418293830555614
0.042861059907027 0.05206678946551995 0.045023466057490934 0.04932069124854546 0.04717457126341051 0.050278705522494055 0.04927339031510991 0.051648378727622825
0.04874484402336166 0.049561999836874746 0.04814466912071402 0.048422554579502515 0.04817433319076567 0.050390304371761764 0.04450771008198504 0.04796473514323745
0.04971340286459928 0.04793626063925769 0.0456024822655988 0.048344044265936095 0.04873969961143276 0.04758805763537988 0.04410333080899992 0.04862970805948758
00000000: 0000 0000 de6e 2441 0000 0000 b8f8 0841
00000010: 0000 0000 808a 1441 0000 0000 8068 1241
00000020: 0000 0000 4cf7 1f41 0000 0000 304c 2441
00000030: 0000 0000 04cb 1141 0000 0000 6c0e 1441
00000040: 0000 0000 400a 3041 0000 0000 5ab0 2341
00000050: 0000 0000 8812 0041 0000 0000 f0d8 1241
00000060: 0000 0000 4c7f 1f41 0000 0000 68f6 2e41
00000070: 0000 0000 c076 fb40 0000 0000 d42c 1441
00000080: 0000 0000 400a 3041 0000 0000 08ad 0441
00000090: 0000 0000 f087 0641 0000 0000 5e20 2b41
000000a0: 0000 0000 c882 1741 0000 0000 c459 1241
000000b0: 0000 0000 400a 3041 0000 0000 a0f1 f340
000000c0: 0000 0000 34f2 1a41 0000 0000 e8ef 1e41
000000d0: 0000 0000 f0a2 1d41 0000 0000 ba91 2441
000000e0: 0000 0000 fc6b 1241 0000 0000 b424 1841
000000f0: 0000 0000 d817 1341 0000 0000 f8a8 0041
00000100: 0000 0000 a089 0941 0000 0000 3871 0641
00000110: 0000 0000 10e5 0441 0000 0000 dea7 2941
00000120: 0000 0000 c8a9 0e41 0000 0000 7053 1541
00000130: 0000 0000 082c 2341 0000 0000 30c2 fb40
00000140: 0000 0000 103e 1541 0000 0000 4055 2a41
00000150: 0000 0000 8ae7 2d41 0000 0000 fee9 2e41
00000160: 0000 0000 9094 2a41 0000 0000 a608 2b41
00000170: 0000 0000 2464 1041 0000 0000 400a 3041
00000180: 0000 0000 6881 1c41 0000 0000 180b 0541
00000190: 0000 0000 e004 0f41 0000 0000 88d3 1941
000001a0: 0000 0000 7c34 1741 0000 0000 5625 2041
000001b0: 0000 0000 90be 1341 0000 0000 1c41 2741
000001c0: 0000 0000 f87a 1a41 0000 0000 1057 2e41
000001d0: 0000 0000 f8a8 0241 0000 0000 b839 1c41
000001e0: 0000 0000 2076 2641 0000 0000 7a87 2d41
000001f0: 0000 0000 e28c 2441 0000 0000 c404 1e41
00000200: 0000 0000 1822 1c41 0000 0000 906a 1141
00000210: 0000 0000 e8a9 1641 0000 0000 6042 0d41
00000220: 0000 0000 dcf7 1041 0000 0000 0c26 1241
00000230: 0000 0000 90ef 1b41 0000 0000 fc3e 2e41
00000240: 0000 0000 400a 3041 0000 0000 70b2 0941
00000250: 0000 0000 b82f 2b41 0000 0000 dcb0 1741
00000260: 0000 0000 90d6 0f41 0000 0000 400a 3041
00000270: 0000 0000 c01f 0141 0000 0000 20c3 2241
00000280: 0000 0000 98eb 0941 0000 0000 accb 1741
00000290: 0000 0000 c89c 1941 0000 0000 300a 1141
000002a0: 0000 0000 a0fd 0d41 0000 0000 7892 1841
000002b0: 0000 0000 18b2 0341 0000 0000 4463 1a41
000002c0: 0000 0000 f6b8 2241 0000 0000 58e2 1441
000002d0: 0000 0000 748a 2a41 0000 0000 5019 1341
000002e0: 0000 0000 90c9 1441 0000 0000 9e9a 2641
000002f0: 0000 0000 c089 f940 0000 0000 3277 2941
00000300: 0000 0000 009c e740 0000 0000 c86b 0d41
00000310: 0000 0000 340a 2641 0000 0000 b80b 0641
00000320: ea93 c6f5 175c f6bf caea 5017 55f0 f6bf
00000330: 9683 cfe3 1b1a f7bf 268e 7218 d81b f6bf
00000340: 9b32 d469 56b4 f5bf 4c88 d936 f44e f5bf
00000350: fc71 9f4b 2209 f6bf dd30 976a 42ed f6bf
00000360: 5e3c 7c08 e693 f5bf 7284 fcac 8c64 f6bf
00000370: 1994 8181 40e3 f6bf a57a 87b2 fb0e f6bf
00000380: c340 10ff ab10 f6bf 99d0 b5fa 9f87 f5bf
00000390: 2a60 330d d749 f7bf 9d75 b4c6 c210 f6bf
000003a0: aafa fa77 147f f5bf 6a5f 2f8f fe99 f6bf
000003b0: bad3 aa7c c124 f7bf 9834 46c5 488c f6bf
000003c0: b517 eb5a fa80 f6bf 43d8 4cad 8017 f6bf
000003d0: e430 99ab 862e f6bf 7418 44ce 372e f8bf
000003e0: 5c78 a911 74da f5bf 0b17 ae9d 1a4a f6bf
000003f0: 2b41 b8b5 de42 f6bf ee63 677c be5f f6bf
00000400: ced3 db4e 9e03 f6bf 5a5c b9b4 f51a f6bf
00000410: e125 7a9b 5e2c f6bf 917a 83c8 b36b f6bf
00000420: db3c fcf5 39a1 f6bf 8104 599e 0fcd f6bf
00000430: 570d 6403 3acf f6bf 40ef 0e61 a084 f5bf
00000440: 5cd7 9dde e4d8 f5bf 994a a80c 7c0a f7bf
00000450: 1702 406a 97cc f5bf b049 0c85 a1b0 f7bf
00000460: e238 e896 33c3 f6bf 11d3 05b0 9bec f5bf
00000470: 9c9d 4521 39b9 f5bf db0a fa08 5653 f6bf
00000480: 1192 1c71 9108 f6bf a916 0bb0 0bf3 f5bf
00000490: d41f 8ed3 d343 f6bf 0750 e43a bb98 f5bf
000004a0: c3f2 a8cb f0c9 f6bf 6760 8be9 945c f6bf
000004b0: d2bf 5ab9 b9e6 f5bf 0f99 4aeb e83e f6bf
000004c0: 72a6 268e 868e f6bf 4916 8bd3 0c48 f6bf
000004d0: e8f3 8740 3983 f6bf c65f da2b f98a f6bf
000004e0: 572d d3c5 b51f f6bf 96a0 6a09 9a96 f5bf
000004f0: 8dac 92ea 1a66 f7bf a51b 0431 b6ac f6bf
00000500: 997f e970 e4b9 f5bf 972f 0094 037c f5bf
00000510: eef4 b3e7 1892 f6bf acbb ae14 9ac6 f5bf
00000520: 3091 4eed bb45 f6bf 34b2 e184 8430 f6bf
00000530: 4ebd 40a5 a695 f6bf 77d0 c226 f422 f7bf
00000540: ebe6 af8d 2fd9 f5bf 5f81 1cb9 34a1 f6bf
00000550: ff83 d51a 4878 f6bf e77f 13f1 018f f5bf
00000560: 3d1b 4377 7ae2 f5bf ba4d 4347 f778 f6bf
00000570: 1e98 1844 0f7a f6bf b650 10f8 8b07 f7bf
00000580: 57fe 2ebc ed16 f6bf a2d5 501c 2acc f5bf
00000590: fd9f 6dd1 646e f7bf 2942 aa3c 4beb f5bf
000005a0: 0890 ba6c 177e f6bf 3817 cf34 dc24 f6bf
000005b0: facf 2cfa 877b f6bf ed08 60f7 cd83 f6bf
000005c0: 40aa 414e ef10 f7bf 5236 b3c3 85d6 f5bf
000005d0: cbc0 c15b e511 f6bf 0b1b 4b06 a349 f6bf
000005e0: 229e 7ef9 6597 f5bf 8fdc f770 0a42 f6bf
000005f0: 67de 0243 347d f6bf c376 b39c b909 f6bf
00000600: 25b8 6c92 9288 f6bf 8c85 a1f6 ae97 f5bf
00000610: fe25 3ab0 1139 f7bf 3b5a 8168 6b3d f6bf
00000620: f6eb 9926 260f fabf fbb2 f84e e9fc f6bf
00000630: dea4 6438 025f f6bf 54c5 f31b 7ab4 f6bf
00000640: d133 a020 e8da a63f 90dd e096 a01d a73f
00000650: 00f3 c215 f8dc a73f 1869 211d 07a0 a93f
00000660: 12b4 4e1c c17d a93f 751c aa92 e443 a83f
00000670: 3bfe 7820 68fe a93f 4945 d7c4 5213 aa3f
00000680: f94d c46e 08ca a83f f0cc b2d3 1617 a93f
00000690: 92ee b184 f066 a73f cac0 431d 5403 ab3f
000006a0: e29f f804 d6a7 a93f be21 4e45 1d4e a83f
000006b0: 72b3 2a6f 6a00 a63f 7e68 ea3e cb00 a93f
000006c0: 796a 3013 62eb a93f c660 e3f1 2c28 a93f
000006d0: 9c1e e327 a384 aa3f 2b93 9d7a 097f a93f
000006e0: 3208 aaea 22bf a93f 64fb aa0f c1eb a93f
000006f0: 31d8 0a52 a60d a83f 7d6f 8b67 d6bd a73f
00000700: 0397 f887 17e5 a73f 67b3 d1de 1ab9 a63f
00000710: 975b 70ac e5a0 a93f c9de e9c7 4f0d a93f
00000720: 6c33 d8e0 522c a93f 4336 e93f 4073 a93f
00000730: 6799 6277 690d aa3f 8889 2066 259f a63f
00000740: ea28 2585 e2f1 a53f b79b ec8b 7fa8 aa3f
00000750: 8bfa 89d4 500d a73f 9473 dbc7 8f40 a93f
00000760: 4fef 8ef1 4327 a83f e403 cf67 21be a93f
00000770: 40d1 ee9f 5c3a a93f 8d99 0d03 a871 aa3f
00000780: 91a0 db8d 15f5 a83f b6f3 d8c0 3060 a93f
00000790: 704e b306 6ba6 a83f e18f 9d50 d7ca a83f
000007a0: 4c34 1f63 4eaa a83f 05d9 9f0a c2cc a93f
000007b0: bda6 71ee b6c9 a63f 175f 9a71 d58e a83f
000007c0: 15e1 f3fe 0874 a93f fded 79ff 198b a83f
000007d0: 0df3 e463 3559 a73f 923a 28f2 8cc0 a83f
000007e0: d028 b2ef 68f4 a83f d0bf 723e 765d a83f
000007f0: 384b f036 b694 a63f 8984 753b fee5 a83f
