code/output/headModelLongRunEval.npy (npy, 6528 bytes, 1 tensors)

array (column-major) f8 [100, 8]
00000000: 0000 0000 94d0 1641 0000 0000 a83f 0641
00000010: 0000 0000 58ce 2941 0000 0000 2019 0641
00000020: 0000 0000 d875 0b41 0000 0000 50aa 0f41
00000030: 0000 0000 6653 2841 0000 0000 70e0 0341
00000040: 0000 0000 9015 1541 0000 0000 20f9 ec40
00000050: 0000 0000 7843 0a41 0000 0000 08eb 1441
00000060: 0000 0000 e8e7 0f41 0000 0000 082d 2c41
00000070: 0000 0000 5046 0041 0000 0000 b018 f740
00000080: 0000 0000 080e 2941 0000 0000 3c66 1141
00000090: 0000 0000 d4d7 1641 0000 0000 10ac 1141
000000a0: 0000 0000 7a3d 2141 0000 0000 a021 0f41
000000b0: 0000 0000 b0a1 fa40 0000 0000 9e3a 2d41
000000c0: 0000 0000 400a 3041 0000 0000 008d fd40
000000d0: 0000 0000 f0bd 0241 0000 0000 fc7d 1b41
000000e0: 0000 0000 5225 2141 0000 0000 50c8 1141
000000f0: 0000 0000 dc22 1441 0000 0000 7097 0441
00000100: 0000 0000 70d0 0141 0000 0000 6857 0941
00000110: 0000 0000 c0ec 0a41 0000 0000 289b 0f41
00000120: 0000 0000 88a7 0e41 0000 0000 308e 0241
00000130: 0000 0000 84d1 2841 0000 0000 3c87 1841
00000140: 0000 0000 f057 ff40 0000 0000 4c22 1141
00000150: 0000 0000 bcd0 1a41 0000 0000 e09c 2141
00000160: 0000 0000 fcd4 1241 0000 0000 90d0 f040
00000170: 0000 0000 f051 1c41 0000 0000 10fd 2141
00000180: 0000 0000 d88e 0941 0000 0000 58da 2241
00000190: 0000 0000 563a 2241 0000 0000 6038 0641
000001a0: 0000 0000 5c9c 1941 0000 0000 184d 0b41
000001b0: 0000 0000 f4db 1441 0000 0000 2000 1241
000001c0: 0000 0000 88a0 0041 0000 0000 8099 f840
000001d0: 0000 0000 78d4 0041 0000 0000 4acc 2e41
000001e0: 0000 0000 c006 ef40 0000 0000 a04a 0641
000001f0: 0000 0000 4426 1e41 0000 0000 a87f 0741
00000200: 0000 0000 1007 2441 0000 0000 00e0 f840
00000210: 0000 0000 a822 0541 0000 0000 68d7 0a41
00000220: 0000 0000 10fd 0a41 0000 0000 58bb 0441
00000230: 0000 0000 c0ed 0b41 0000 0000 0eca 2241
00000240: 0000 0000 5c9d 2641 0000 0000 b0a5 ff40
00000250: 0000 0000 8027 ee40 0000 0000 204f f940
00000260: 0000 0000 38b2 1241 0000 0000 d022 0c41
00000270: 0000 0000 3e76 2641 0000 0000 e0bd ed40
00000280: 0000 0000 f016 fa40 0000 0000 5473 1041
00000290: 0000 0000 989a 2141 0000 0000 bcc3 1d41
000002a0: 0000 0000 648c 2341 0000 0000 80dc 0a41
000002b0: 0000 0000 2016 1541 0000 0000 448e 1041
000002c0: 0000 0000 9074 2c41 0000 0000 40a1 2041
000002d0: 0000 0000 707f 0341 0000 0000 6c3e 2d41
000002e0: 0000 0000 a017 1441 0000 0000 58d9 0241
000002f0: 0000 0000 4894 0141 0000 0000 44ac 1941
00000300: 0000 0000 d6da 2041 0000 0000 5832 1e41
00000310: 0000 0000 e8ab 1f41 0000 0000 30f0 1441
00000320: 0a2b 9146 d2d1 f6bf 01df 3bcf c7a1 f6bf
00000330: 301b 778e 5bdb f5bf cdff 03cd 6e63 f7bf
00000340: 4768 86f9 7152 f6bf d3ab 2e47 5de4 f5bf
00000350: cfb4 617a f483 f6bf 40fa 7ee3 4c6f f7bf
00000360: c16e 1f37 2b03 f6bf 7fa0 9ad2 31a3 f9bf
00000370: fd61 69cf 825e f6bf 9bc1 8652 899d f6bf
00000380: 6ade eaac b5eb f5bf fa69 7cc1 5305 f6bf
00000390: 5ee7 7904 7e2f f7bf b6e3 25b0 d453 f7bf
000003a0: f403 5a22 e1dc f5bf dc91 0f0d 2446 f6bf
000003b0: f2b7 4b1a acdd f6bf 07d7 a5e5 8202 f7bf
000003c0: bca5 b89c fbbb f5bf a112 8539 071e f7bf
000003d0: 4507 5438 9254 f7bf 6cad b5fd 16b6 f5bf
000003e0: 99b0 92d1 d637 f6bf 0d47 6144 4282 f7bf
000003f0: a8c4 ab42 c527 f6bf 14f3 dc6d dfc1 f5bf
00000400: ec6e 72a8 4ed3 f5bf 7f4d 99f1 376a f6bf
00000410: ee2d eb2c 0c9b f6bf c340 fa3e 61de f6bf
00000420: 5ef2 3da5 b18c f7bf 8ac4 0a13 47db f6bf
00000430: bab5 e71f 42e9 f6bf 8af9 f254 8b6e f7bf
00000440: 3af3 0a54 3f5a f7bf 4214 2260 d279 f6bf
00000450: 84c8 d42a 7831 f6bf 4dbf 6acb c733 f6bf
00000460: cf6f 9b1e 6e17 f7bf a137 ba35 bcd7 f6bf
00000470: db90 71f8 8a2b f6bf 417a 45b2 00ac f6bf
00000480: 5075 915f 95f6 f5bf 173d 53e8 6e6e f8bf
00000490: df60 d5b8 217d f6bf a531 ea3a 17af f5bf
000004a0: 949e ab4a 8832 f6bf e6f1 74a9 3c91 f6bf
000004b0: 9479 230e 14fe f5bf 5bb3 ef86 a99c f6bf
000004c0: 2cb9 8179 f504 f6bf 430b 8c5a 23a8 f6bf
000004d0: 2871 e726 c5f6 f6bf c565 8d38 488c f6bf
000004e0: 29b0 e3e0 8ef0 f6bf 4d15 d7e3 1d81 f8bf
000004f0: 66d7 e92c cfea f6bf 46c6 74d3 db6e f6bf
00000500: 69e7 ca44 746f f8bf d0b0 121d e366 f7bf
00000510: 0a53 e12a e94a f6bf f359 eb41 dd21 f7bf
00000520: 76b1 0561 275a f6bf 0856 fe7b 6809 f8bf
00000530: 27f5 c3d1 ddbd f7bf 5b5d 66b0 6745 f6bf
00000540: a4e1 a312 49a3 f6bf 5157 1270 2df5 f6bf
00000550: 6424 907a fb68 f6bf 9c4d c88d 6c9a f5bf
00000560: 681f f844 67bf f5bf 3b62 00d4 07b5 f6bf
00000570: 7ad0 922d 9684 f8bf 1bde 55cb 7689 f7bf
00000580: adc2 33eb 4349 f6bf b59c ceb5 e4d2 f6bf
00000590: 29ec 3e9e c3c8 f5bf 9ecd ddb0 6968 f9bf
000005a0: cc97 e3ff 933a f7bf 0c61 0ed2 3e0e f6bf
000005b0: 6c32 aeb3 829a f6bf 8f45 7f54 aaa1 f6bf
000005c0: 1167 ad40 5ea5 f5bf 64f5 a32c 80d3 f6bf
000005d0: 922f 80ba 30b6 f6bf 46ee e615 82ec f6bf
000005e0: 1821 4550 aef2 f5bf 0b10 7855 5bc9 f5bf
000005f0: 9558 bf73 30c5 f7bf 1cb5 76b8 2aba f5bf
00000600: bf23 f17f b8de f6bf cdae 8b9d a9d6 f6bf
00000610: ff21 abeb da5f f7bf b830 d8d1 81da f5bf
00000620: e270 fec3 168d f5bf bff4 d0b2 9782 f6bf
00000630: 8de4 f80b 234e f6bf a31a a297 cef6 f6bf
00000640: be7c f79e 2f61 aa3f 7ad5 7dc3 f961 ab3f
00000650: f47c 57c8 2e7e a93f 0c8b 4e28 b6e2 a73f
00000660: 373a 3a63 8667 a93f 37a1 6928 1c4d a83f
00000670: 9eaa 0729 b14b a83f c010 7bfb fde1 a93f
00000680: 7da4 b8bc 6166 a93f adf1 0148 be3b a83f
00000690: 9b80 a29a b65b a93f 49fc d7f3 cb1a ab3f
000006a0: 9cda 91e5 086a a83f 0208 b9dc fcb0 a83f
000006b0: 2eaf 6df8 462a a63f 0178 16a0 d61e af3f
000006c0: 91b0 a41c a0e8 a83f a26a 2b25 27e2 a73f
000006d0: 60f8 d39a 7c55 a83f baf8 1bb9 329a a83f
000006e0: 25d0 0683 e525 a73f e9e5 b1cd 0c2d a93f
000006f0: 72e1 b953 033f aa3f ee2d 158a 0efe aa3f
00000700: 7589 f5d7 9f55 a83f 3c6c ef7b 0e54 a73f
00000710: c6d2 a29a 7a41 a93f c848 6449 65de a83f
00000720: 36e9 9cae bf5c aa3f 644c 0783 4f2a aa3f
00000730: 6eff 05cb 459d a93f 09d1 d37a fed4 aa3f
00000740: b84b 7e44 7ec7 a93f a870 a74c ba3e a73f
00000750: da76 798b 26f2 a63f 7b77 0d1f 3837 aa3f
00000760: f2d8 08a5 7262 a83f d950 27fc b645 ac3f
00000770: 32d7 13ec d1b6 a73f d4e5 1198 24c1 aa3f
00000780: 08c2 b7f4 2193 a63f f156 5607 56b3 a73f
00000790: ef4f e765 91ff a93f 84dc 75bb 0ff3 a93f
000007a0: ee71 2317 36c7 aa3f 3454 f9ff 98fc a83f
000007b0: 9233 1571 adbc a93f 9cda 53b2 7edf a93f
000007c0: 0805 9c4b 6c2a a73f 2e1d 6197 0ea2 a93f
000007d0: baf6 3054 e3a4 a83f baab 79d7 4ce8 aa3f
000007e0: 4f03 9316 1e26 ab3f 667f ce21 738d ab3f
000007f0: f1b0 7c20 3f2c a93f e283 2584 f588 a83f
373797.0 182261.0 845612.0 181028.0 224955.0 259402.0 797107.0 162830.0
345444.0 59337.0 215151.0 342722.0 261373.0 923268.0 133322.0 94603.0
820996.0 285071.0 374261.0 289540.0 564925.0 255028.0 109083.0 957775.0
1051200.0 121040.0 153534.0 450431.0 561833.0 291348.0 329911.0 168686.0
145934.0 207597.0 220568.0 258917.0 251121.0 152006.0 813250.0 401871.0
128383.0 280723.0 439343.0 577136.0 308543.0 68873.0 463996.0 589448.0
209371.0 617772.0 597291.0 182028.0 419607.0 223651.0 341757.0 294920.0
136209.0 100760.0 137871.0 1009189.0 63542.0 182612.0 493969.0 192501.0
656264.0 101888.0 173141.0 219885.0 221090.0 169835.0 228792.0 615687.0
741038.0 129627.0 61756.0 103666.0 306318.0 230490.0 736031.0 60911.0
106863.0 269525.0 576844.0 487663.0 640562.0 220048.0 345480.0 271249.0
932424.0 544928.0 159726.0 958262.0 329192.0 154411.0 144009.0 420625.0
552299.0 494742.0 518906.0 343052.0 -1.4262259251142404 -1.414497193820296 -1.3660541119622387 -1.4617755897925122
-1.3951282260009223 -1.3682530193861921 -1.407215574315433 -1.464672936111711 -1.3757736352189769 -1.6023424364775847 -1.3980739690797457 -1.413461038941114
-1.3700463060939918 -1.3763005788847509 -1.4490947890139618 -1.4579665070325354 -1.3664256421909586 -1.3921242246807344 -1.4291192080668194 -1.4381131144159
-1.3583942529606778 -1.4448311087482255 -1.4581472587892261 -1.356955519727161 -1.3886326013990014 -1.4693014784901977 -1.3847096065840478 -1.3598322192694399
-1.3640886859856733 -1.4009322583632124 -1.4128534083018809 -1.42929195976835 -1.471849103428347 -1.4285345786886716 -1.4319478269857044 -1.4644883459401137
-1.4595330508156636 -1.4047416453552306 -1.3870774911015653 -1.3876417108512726 -1.443220252570416 -1.4276697252966886 -1.3856305794552586 -1.4169928516127046
-1.372701047242419 -1.5269612384034355 -1.4055497379359208 -1.3552467633590848 -1.387337009125905 -1.4104582423598173 -1.3745308449066203 -1.4132476111364756
-1.3762106653553685 -1.4160493409151094 -1.435246612519288 -1.409248562724643 -1.4337300095312548 -1.5315226459509461 -1.4323264841491095 -1.4020651111608387
-1.5272104918680844 -1.462618936125228 -1.3932887721068163 -1.4457676482176083 -1.3970102109843459 -1.5022969096656897 -1.483854121586157 -1.3919445887202844
-1.4148646095401114 -1.4348577859686495 -1.4006304538363787 -1.3502011812568986 -1.3592293447599904 -1.4191969186123419 -1.5323697834219545 -1.4710605566778046
-1.392887038000633 -1.426487646278287 -1.3615146810032093 -1.5879914196819764 -1.4518012996354512 -1.3784778790778232 -1.4127223032729956 -1.4144690800352213
-1.3528730894526613 -1.4266359084861842 -1.4194800648865322 -1.4327412467527139 -1.3717482696102419 -1.36165936838461 -1.485641910685023 -1.3579508977521249
-1.4293751714451302 -1.427407851612702 -1.4609021383095067 -1.3658464619684718 -1.3469455390941723 -1.406882952214161 -1.394076391951134 -1.4352556155369391
0.0515227204848485 0.05348186980601617 0.04979082294061668 0.046651546879067224 0.04961795769951432 0.047463302548580825 0.047452484377420875 0.050552308033304794
0.04960923603750531 0.04733080510138463 0.04952784192687539 0.052938817516399235 0.047683980964326994 0.048225309318254986 0.043291299653758095 0.06078215316959757
0.04864979123735325 0.04664728478174608 0.04752721204748478 0.04805143842348643 0.045211002582988415 0.04917182932781456 0.051262001009436356 0.05271954951839662
0.04752826224536736 0.04556317580109989 0.04932768952986559 0.04857174416442117 0.0514888668680719 0.051104054207507216 0.0500280199366888 0.05240626572950375
0.050350137578014154 0.045400449616608995 0.04481621220177852 0.05120253924427139 0.04762609734136615 0.05521938159987067 0.04631668097310494 0.052254813731405086
0.044091282961634504 0.046290100474989056 0.0507779538053511 0.0506825367291919 0.052301111530798625 0.04880216717416666 0.05026762013822074 0.05053325583314924
0.04524553702322903 0.05006452176945185 0.04813299563146019 0.052553559592375135 0.05302518868984995 0.053813550831590715 0.049165699687678706 0.04791991460911739
